…
            },
            "emb": 0,
            "cell_type": "code",
            "image_path": [
                [
                    null,
                    59,
                    1,
                    null
                ]
            ],
            "output": {
                "source": {
                    "source": [
                        "Model: \"sequential_2\"\n_________________________________________________________________\nLayer (type)                 Output Shape              Param #   \n=================================================================\ndense_5 (Dense)              (None, 16)                272       \n_________________________________________________________________\ndropout_3 (Dropout)          (None, 16)                0         \n_________________________________________________________________\ndense_6 (Dense)              (None, 64)                1088      \n_________________________________________________________________\ndropout_4 (Dropout)          (None, 64)                0         \n_________________________________________________________________\ndense_7 (Dense)              (None, 32)                2080      \n_________________________________________________________________\ndense_8 (Dense)              (None, 1)                 33        \n=================================================================\nTotal params: 3,473\nTrainable params: 3,473\nNon-trainable params: 0\n_________________________________________________________________\n",
                        "/opt/conda/lib/python3.6/site-packages/ipykernel_launcher.py:3: UserWarning: Update your `Dense` call to the Keras 2 API: `Dense(16, input_dim=16, activation
…
