…
            },
            "emb": 0,
            "cell_type": "code",
            "image_path": [
                [
                    null,
                    43,
                    0,
                    null
                ]
            ],
            "output": {
                "source": {
                    "source": [
                        "Model: \"sequential\"\n_________________________________________________________________\nLayer (type)                 Output Shape              Param #   \n=================================================================\ndense (Dense)                (None, 32)                256       \n_________________________________________________________________\ndense_1 (Dense)              (None, 64)                2048      \n_________________________________________________________________\nbatch_normalization (BatchNo (None, 64)                256       \n_________________________________________________________________\ndense_2 (Dense)              (None, 128)               8192      \n_________________________________________________________________\ndropout (Dropout)            (None, 128)               0         \n_________________________________________________________________\ndense_3 (Dense)              (None, 64)                8192      \n_________________________________________________________________\ndropout_1 (Dropout)          (None, 64)                0         \n_________________________________________________________________\ndense_4 (Dense)              (None, 32)                2080      \n_________________________________________________________________\ndropout_2 (Dropout)          (None, 32)                0         \n_________________________________________________________________\ndense_5 (Dense)              (None, 16)                528       \n_________________________________________________________________\ndense_6 (Dense)              (None, 8)                 128       \n_________________________________________________________________\ndense_7 (Dense)              (None, 1)                 9         \n=================================================================\nTotal params: 21,689\nTrainable params: 21,561\nNon-trainable params: 128\n_________________________________________________________________\n"
                    ]
                },
                "mc_idx": 71,
                "nb_idx": 0,
                "embedding": {},
                "classification": null,
                "keywords": {},
…
