…
            },
            "emb": 0,
            "cell_type": "code",
            "image_path": [
                [
                    null,
                    6,
                    0,
                    null
                ]
            ],
            "output": {
                "source": {
                    "source": [
                        "Model: \"sequential\"\n_________________________________________________________________\n Layer (type)                Output Shape              Param #   \n=================================================================\n batch_normalization (Batch  (None, 6)                 24        \n Normalization)                                                  \n                                                                 \n dense (Dense)               (None, 64)                448       \n                                                                 \n batch_normalization_1 (Bat  (None, 64)                256       \n chNormalization)                                                \n                                                                 \n dropout (Dropout)           (None, 64)                0         \n                                                                 \n dense_1 (Dense)             (None, 32)                2080      \n                                                                 \n batch_normalization_2 (Bat  (None, 32)                128       \n chNormalization)                                                \n                                                                 \n dropout_1 (Dropout)         (None, 32)                0         \n                                                                 \n dense_2 (Dense)             (None, 16)                528       \n                                                                 \n batch_normalization_3 (Bat  (None, 16)                64        \n chNormalization)                                                \n                                                                 \n dropout_2 (Dropout)         (None, 16)                0         \n                                                                 \n dense_3 (Dense)             (None, 1)                 17        \n                                                                 \n=================================================================\nTotal params: 3545 (13.85 KB)\nTrainable params: 3309 (12.93 KB)\nNon-trainable params: 236 (944.00 Byte)\n_________________________________________________________________\n"
                    ]
                },
                "mc_idx": 9,
                "nb_idx": 0,
…
