…
                    null,
                    91,
                    0,
                    null
                ]
            ],
            "output": {
                "source": {
                    "source": [
                        "Model: \"model\"\n_________________________________________________________________\nLayer (type)                 Output Shape              Param #   \n=================================================================\ninput_1 (InputLayer)         [(None, 8)]               0         \n_________________________________________________________________\nmulti_category_encoding (Mul (None, 8)                 0         \n_________________________________________________________________\nnormalization (Normalization (None, 8)                 17        \n_________________________________________________________________\ndense (Dense)                (None, 32)                288       \n_________________________________________________________________\nre_lu (ReLU)                 (None, 32)                0         \n_________________________________________________________________\ndense_1 (Dense)              (None, 32)                1056      \n_________________________________________________________________\nre_lu_1 (ReLU)               (None, 32)                0         \n_________________________________________________________________\ndense_2 (Dense)              (None, 1)                 33        \n_________________________________________________________________\nclassification_head_1 (Activ (None, 1)                 0         \n=================================================================\nTotal params: 1,394\nTrainable params: 1,377\nNon-trainable params: 17\n_________________________________________________________________\n"
                    ]
                },
                "mc_idx": 165,
                "nb_idx": 0,
                "embedding": {},
                "classification": null,
                "keywords": {},
…
